double_pendulum_pbnn_model.pth (torch, 4584 bytes, 4 tensors)

fc1.weight f4 [64, 4]
0	0x3e3272f4	0.17426664
1	0x3dc5d4de	0.09659742
2	0xbdbeb16c	-0.09311184
3	0x3e48dde2	0.19615892
4	0x3ea927b5	0.33038107
5	0x3ea93002	0.3304444
6	0x3e91bb49	0.284632
7	0x3d8ad46c	0.067787975
8	0x3d91b4ab	0.07114538
9	0xbea32ff7	-0.31872532
10	0xbe2cbd04	-0.16868979
11	0xbeb34421	-0.35012916
12	0x3e2de460	0.1698165
13	0xbe1d9c8f	-0.15391754
14	0x3cbe881b	0.02325826
15	0x3d15896b	0.036508005
16	0xbe83e920	-0.25763798
17	0x3d71eb00	0.059062004
18	0x3ea765fb	0.32694992
19	0xbecb17b9	-0.39666536
20	0x3e4c5e68	0.19957888
21	0x3ea2dea4	0.31810486
22	0xbe660150	-0.22461438
23	0x3e672ab4	0.22574884
24	0xbe15db55	-0.1463445
25	0x3e79b229	0.24384369
26	0xbdd02aec	-0.10164437
27	0x3e5c0ff1	0.21490456
28	0x3f263cc0	0.6493645
29	0xbedfca44	-0.43709004
30	0x3e7bad7a	0.24577895
31	0xbe3af98e	-0.1825926
32	0xbe0277c7	-0.12741004
33	0xbe3e61c6	-0.18591985
34	0xbda56cb1	-0.08077372
35	0x3e68c024	0.22729546
36	0xbde2f7f2	-0.11082448
37	0x3e92e7a1	0.28692344
38	0x3e9a9d21	0.30198005
39	0xbd38075d	-0.044928897
40	0x3ec64488	0.3872416
41	0x3ecc45fa	0.39897138
42	0xbed1f2ee	-0.41005653
43	0xbe9dcda6	-0.3082096
44	0x3e961fea	0.29321223
45	0xbe8e35e0	-0.27775478
46	0xbdd2f30b	-0.10300263
47	0x3e6cf0a2	0.23138669
48	0x3e57a9cc	0.21060866
49	0x3d568810	0.052375853
50	0xbe26f824	-0.16305596
51	0x3e441e90	0.19152284
52	0xbee241ff	-0.44190976
53	0xbc157078	-0.009121053
54	0xbe94d50c	-0.29068792
55	0x3de6c153	0.112673424
56	0xbdfd8f10	-0.12380803
57	0x3e12268c	0.14272517
58	0xbe98c36e	-0.298366
59	0xbecc73b6	-0.3993203
60	0xbcff53e3	-0.03116793
61	0x3df5738f	0.11984932
62	0x3db7f88b	0.08982953
63	0x3e79a2d7	0.24378525
64	0xbdd42b5a	-0.10359831
65	0x3e480a05	0.19535072
66	0xbde9c6c3	-0.11414864
67	0x3f177c5e	0.59174144
68	0xbdb37c53	-0.08763947
69	0x3e1093b7	0.14118849
70	0x3dd60f64	0.10452154
71	0x3e2e45ec	0.1701886
72	0x3e9ac433	0.30227813
73	0xbd49f365	-0.049304385
74	0x3ee1684c	0.44024885
75	0x3f1bc333	0.60844725
76	0xbd94e49e	-0.07270168
77	0x3ef271a5	0.4735233
78	0xbe8fb3d8	-0.28066897
79	0x3e808c97	0.25107262
80	0x3e134294	0.14380866
81	0xbda3a440	-0.079903126
82	0xbe7d5814	-0.2474063
83	0xbc3c2380	-0.011483073
84	0x3eeb0b17	0.45906898
85	0x3cb644b7	0.022249563
86	0x3e55bd54	0.20873004
87	0x3e4bdd69	0.1990868
88	0x3eeb9631	0.46013024
89	0xbd2efc78	-0.04272124
90	0xbe82ac32	-0.25522
91	0xbe9815f1	-0.2970424
92	0xbddf5bd5	-0.109061874
93	0xbcf51359	-0.029916452
94	0x3eb0911b	0.34485707
95	0xbd8af1c8	-0.06784397
96	0xbcf98b5d	-0.030461961
97	0xbe8fcf14	-0.28087676
98	0xbe9def10	-0.30846453
99	0x3e8b00b9	0.2714899
100	0x3e808261	0.2509947
101	0xbdd8b3a8	-0.10581142
102	0xbe930fce	-0.28722996
103	0xbdcb9698	-0.09940833
104	0x3e4b70b7	0.19867216
105	0x3ea0532d	0.31313458
106	0xbed40707	-0.4141161
107	0x3e14345b	0.14473097
108	0xbe66c628	-0.22536528
109	0x3d616810	0.055030882
110	0xbe99bc12	-0.300263
111	0xbdcb83d8	-0.099372566
112	0x3d471519	0.048604105
113	0x3dcb413f	0.09924554
114	0xbe3d350b	-0.18477266
115	0xbee1f97f	-0.44135663
116	0xbe191644	-0.149499
117	0xbefa6153	-0.48902377
118	0xbe4b7c9a	-0.1987175
119	0x3e22230e	0.15833685
120	0x3ec3012e	0.38086838
121	0x3ed8c8d2	0.42340714
122	0x3eaea423	0.341096
123	0xbdbd3781	-0.09239102
124	0x3ebaee84	0.36510098
125	0xbe1f0205	-0.15528114
126	0xbd2813d9	-0.041034553
127	0xbe8d3fec	-0.2758783
128	0xbe32d204	-0.17462927
129	0x3eac1808	0.33612084
130	0xbebd549c	-0.36978614
131	0xbef87bfc	-0.48532093
132	0x3e2f62a0	0.17127466
133	0x3cf3f200	0.02977848
134	0xbdecfd90	-0.11571801
135	0xbecf3fa2	-0.40478235
136	0x3d92a3ec	0.07160172
137	0x3ecd3de3	0.40086278
138	0xbe387d34	-0.18016511
139	0xbe3cf6b0	-0.18453479
140	0x3dee8838	0.116470754
141	0xbe70a8a4	-0.23501831
142	0x3ed6a04a	0.41919166
143	0xbd8ca820	-0.06868005
144	0xbed7babe	-0.4213466
145	0xbef05c6a	-0.46945506
146	0xbec0a264	-0.37623894
147	0x3dd23e47	0.10265785
148	0xbe869917	-0.26288673
149	0xbe11c9c6	-0.14237127
150	0x3ee1fb19	0.44136885
151	0x3e7d243a	0.2472085
152	0xbeaf7a9f	-0.3427324
153	0xbefd1c23	-0.4943553
154	0xbe5bc807	-0.21463023
155	0x3f1c1bc2	0.60979855
156	0xbec5cce0	-0.3863287
157	0x3e6efd66	0.23338851
158	0x3e0aa281	0.13538553
159	0xbe4a372a	-0.19747606
160	0xbe9d0fe5	-0.3067619
161	0x3d4e8ec9	0.05042914
162	0xbee508ab	-0.44733176
163	0xbf1de4e9	-0.61677414
164	0x3e8208dd	0.25397387
165	0xbe391b18	-0.18076742
166	0xbe9f02df	-0.31056878
167	0xbd53d7cf	-0.051719483
168	0xbdc2a1ba	-0.09503503
169	0x3d62710c	0.05528359
170	0xbde44c73	-0.11147394
171	0x3e1fcb18	0.15604818
172	0xbea530d9	-0.3226383
173	0x3e73a8f9	0.23794927
174	0xbe401252	-0.18756989
175	0x3e7c6c91	0.2465079
176	0xbe8f59fa	-0.27998334
177	0xbe87ce04	-0.26524365
178	0x3e1f1c7a	0.15538207
179	0xbd288e8c	-0.04115157
180	0xbe9c6d3b	-0.30552086
181	0xbe6dd638	-0.23226249
182	0xbe64f7f7	-0.22360216
183	0xbeaa4d77	-0.33262226
184	0x3f0d5781	0.55211645
185	0x3eb5891f	0.35456178
186	0x3de627ea	0.11238082
187	0xbd767800	-0.060173035
188	0xbe29ee55	-0.16594823
189	0x3df7b8e9	0.12095816
190	0xbe7824ea	-0.24232832
191	0xbe4f9131	-0.2027023
192	0x3e94a599	0.2903259
193	0x3ed702ba	0.41994268
194	0x3e3abc51	0.182359
195	0xbf044421	-0.51666456
196	0x3ee4cbe2	0.446868
197	0xbdee7188	-0.11642748
198	0xbe5974d8	-0.21235979
199	0x3ee5f8a4	0.4491626
200	0xbdf054b5	-0.117349066
201	0x3db1bc4d	0.08678494
202	0xbe7f6d53	-0.24944048
203	0x3c6fb342	0.014630141
204	0x3e68b144	0.22723871
205	0x3d1a46d0	0.03766519
206	0xbdac4f10	-0.084135175
207	0x3c82ed40	0.01598227
208	0x3d911c84	0.07085517
209	0xbe62caca	-0.2214767
210	0xbe69eeab	-0.22844951
211	0x3ef363be	0.47537035
212	0xbeee61dc	-0.46559036
213	0xbdbe0b31	-0.09279478
214	0xbe9d7176	-0.30750626
215	0xbe15c468	-0.14625704
216	0x3e9086eb	0.28227934
217	0x3e29a4e7	0.16566812
218	0xbe1d3353	-0.1535161
219	0x3e90f27c	0.2831
220	0xbe65957d	-0.22420307
221	0xbda88c77	-0.082299165
222	0x3e2def29	0.16985764
223	0xbe9e073d	-0.30864897
224	0xbe3a89c3	-0.18216614
225	0xbde82d4d	-0.113367654
226	0x3e833dbb	0.25633034
227	0xbea860b2	-0.32886273
228	0xbee09f65	-0.43871608
229	0x3ec7d70c	0.39031255
230	0x3e72373a	0.2365388
231	0x3eb3af1f	0.35094544
232	0x3d8c3a58	0.06847066
233	0x3e8d35bc	0.2758006
234	0x3e98a692	0.29814583
235	0x3e4a6728	0.19765913
236	0xbea5a1db	-0.32350048
237	0xbde8f2b0	-0.11374414
238	0xbc39033b	-0.011292274
239	0x3e29a27d	0.1656589
240	0x3e863e6c	0.262195
241	0x3e44c1b0	0.19214511
242	0x3dd063fc	0.101753205
243	0x3cb5a2bf	0.02217233
244	0xbee8247d	-0.45340338
245	0x3eb4d582	0.35319144
246	0xbe31e5c0	-0.17372799
247	0xbeb55191	-0.35413793
248	0xbe8ade2d	-0.27122632
249	0xbe3ace9c	-0.18242878
250	0x3eab7788	0.33489633
251	0x3e6d4151	0.23169447
252	0xbe831aff	-0.25606534
253	0xbefa89cb	-0.48933253
254	0xbeb7a96f	-0.35871455
255	0xbe3ae3bb	-0.18250935

fc1.bias f4 [64]
0	0x3e2f7052	0.1713269
1	0x3eb0d643	0.3453847
2	0x3deee59a	0.11664887
3	0x3dbe0633	0.09278526
4	0x3e661fca	0.22473064
5	0xbeb4c00a	-0.35302764
6	0x3e2838a8	0.16427863
7	0x3ec66e0e	0.3875584
8	0x3c75196e	0.014959676
9	0x3e646fd7	0.22308289
10	0xbee8aea0	-0.45445728
11	0x3e4d201a	0.20031777
12	0xbe8422e8	-0.2580788
13	0x3e0ee8f4	0.13956052
14	0xbeae00f4	-0.33985102
15	0xbd99230f	-0.0747739
16	0x3ea3df03	0.32006082
17	0x3e0960e4	0.13415867
18	0x3d21bb01	0.03948498
19	0x3e99775a	0.2997387
20	0xbea607aa	-0.32427722
21	0x3ea26917	0.31720802
22	0x3e88d490	0.26724672
23	0x3e2a9499	0.16658248
24	0x3e370677	0.1787356
25	0x3e2e6a81	0.17032816
26	0x3e7f8522	0.2495313
27	0xbedce8c0	-0.43146324
28	0x3e20fcc5	0.15721424
29	0x3e3441d7	0.17603241
30	0x3d3c4902	0.045968063
31	0xbe53f484	-0.20698744
32	0xbecc4c04	-0.39901745
33	0xbe9413fe	-0.28921503
34	0x3e38e7af	0.1805713
35	0xbe6ee958	-0.23331201
36	0xbd4fd8a0	-0.0507437
37	0x3e80a8d1	0.25128797
38	0x3d2b07d5	0.041755516
39	0x3e2ec8c2	0.1706877
40	0xbd24624b	-0.040132802
41	0x3e2a01af	0.16602205
42	0x3dabbbd1	0.083854325
43	0x3e43da56	0.19126257
44	0x3e0d9b50	0.13828778
45	0x3de53ad6	0.11192863
46	0x3ebba328	0.36647916
47	0x3dc0b222	0.09408976
48	0xbd100bd9	-0.03516755
49	0xbe81406a	-0.25244457
50	0xbe2b8e17	-0.16753422
51	0xbeaf155a	-0.34195977
52	0xbe8233d0	-0.25430155
53	0x3e5bdf38	0.2147187
54	0xbe147b08	-0.14500058
55	0x3e08f58a	0.13374916
56	0x3e2c411b	0.16821711
57	0x3eb81961	0.35956863
58	0xbef9296a	-0.4866441
59	0x3e092d74	0.13396245
60	0x3e41eef3	0.18938808
61	0x3ea17847	0.31537077
62	0x3e5a4b61	0.21317817
63	0x3e77c21a	0.24195138

fc2.weight f4 [4, 64]
0	0x3e3eada6	0.18620929
1	0xbc36710a	-0.011135349
2	0x3cdaf735	0.026729206
3	0x3d15fc5b	0.036617618
4	0xbc7f761b	-0.015592123
5	0xbd42ccb4	-0.0475585
6	0xbcff6dd9	-0.03118031
7	0x3e3d11e1	0.18463852
8	0xbd379ecd	-0.04482918
9	0xbcc23006	-0.02370454
10	0xbc6251b0	-0.013813421
11	0x3c8c02bc	0.017091148
12	0x3d02ca2c	0.031931087
13	0xbe8d77ee	-0.27630562
14	0x3dff75f6	0.12473671
15	0xbb46cec5	-0.0030335647
16	0xbbb45b12	-0.0055040205
17	0xbd8e4136	-0.06946032
18	0x3d9e4800	0.07728577
19	0xbc89b72b	-0.016810974
20	0x3da499a0	0.08037114
21	0x3d09fe6a	0.033689894
22	0x39610b89	0.0002146197
23	0x3cfcd931	0.030865284
24	0x3c7659d2	0.015036063
25	0x3e78b820	0.24288988
26	0x3e073a84	0.13205916
27	0xbde37a40	-0.11107302
28	0x3da08fe1	0.07839943
29	0xbd405f32	-0.046965785
30	0x3dceb81a	0.10093708
31	0x3bb7234b	0.005588924
32	0xbdbe04d8	-0.092782676
33	0xbdd0279c	-0.10163805
34	0x3c9222cf	0.017838864
35	0x3dca8808	0.09889227
36	0xbdba6af7	-0.09102433
37	0xbc8ab8ed	-0.016933883
38	0xbcff88ce	-0.031193163
39	0xbe0e9e33	-0.13927536
40	0xbd9bafa3	-0.076018594
41	0x3e3852c8	0.18000329
42	0xbd5e29eb	-0.054239195
43	0xbdab110c	-0.08352861
44	0xbd4ae6b6	-0.04953643
45	0xbe5013c5	-0.20320041
46	0x3e192616	0.14955935
47	0xbd236ed1	-0.039900605
48	0x3d697c1a	0.057003118
49	0x3de7723a	0.11301084
50	0x3c89a9f2	0.016804669
51	0xbc4b2880	-0.012399793
52	0xbbf11790	-0.007357545
53	0xbdc49de4	-0.09600428
54	0x3d0784ea	0.03308574
55	0xbe058c9b	-0.13041918
56	0xbda1f2e6	-0.07907657
57	0xbdb1ca37	-0.086811475
58	0xbd8e8cc6	-0.06960444
59	0xbdf6307c	-0.120209664
60	0x3d38e88c	0.04514365
61	0xbd7847c3	-0.060615312
62	0xbd53b89e	-0.051689737
63	0x3d416779	0.04721782
64	0x3d965fa3	0.0734246
65	0x3db462e9	0.08807928
66	0xbdec715d	-0.1154506
67	0xbd8803d5	-0.06641356
68	0x3da857da	0.08219881
69	0x3db835da	0.08994646
70	0x3e3ed67b	0.18636505
71	0xbe2ac422	-0.16676381
72	0xbdb2ceea	-0.08730872
73	0x3d9cb75b	0.0765216
74	0x3d18ae5c	0.037275657
75	0xbddce7e1	-0.10786415
76	0xbdb3c166	-0.08777122
77	0x3d60e706	0.05490782
78	0xbbb9f9e0	-0.0056755394
79	0xba4dd20f	-0.00078514306
80	0xbc91f46e	-0.017816748
81	0x3d397be3	0.045284163
82	0xbdbb04c8	-0.09131771
83	0x3e4c4c4e	0.19950983
84	0x3dc06e18	0.09395999
85	0x3c53178e	0.012884034
86	0x3c486467	0.012230969
87	0xbd438236	-0.0477316
88	0xbe0f2649	-0.13979448
89	0xbd9b8c8f	-0.07595169
90	0x3e444a84	0.1916905
91	0x3db553d0	0.088538766
92	0x3e049016	0.1294559
93	0xbe7ba55e	-0.24574801
94	0x3df4ebfc	0.11959073
95	0x3b837794	0.0040120576
96	0xbc8112c8	-0.015756026
97	0xbc428220	-0.0118718445
98	0x3c5ca9ee	0.013468249
99	0x3d4678a8	0.04845491
100	0xbddd523a	-0.10806699
101	0x3ce632ec	0.028100453
102	0xbdd1f0fc	-0.10251042
103	0x3d904644	0.07044652
104	0x3db94120	0.09045625
105	0x3c1fda9f	0.009756713
106	0xbca94492	-0.02066258
107	0x3d7d089d	0.061775792
108	0xbe51361c	-0.20430797
109	0xbd7509ff	-0.059823986
110	0xbd0231e3	-0.031785857
111	0x3ca76c4d	0.020437384
112	0x3e237642	0.1596308
113	0xbdc300a2	-0.09521605
114	0x3d9dbd2f	0.077020995
115	0x3df30948	0.11867005
116	0xbd90491d	-0.07045195
117	0xbdcc6f6a	-0.09982188
118	0x3d9e2a67	0.07722931
119	0xbd05ab3a	-0.032633997
120	0xbe3290f5	-0.17438109
121	0x3dfe057f	0.12403392
122	0x3d422f58	0.04740843
123	0xbd841984	-0.06450179
124	0xbbabc204	-0.0052416343
125	0x3daacb8d	0.083396055
126	0xbd6a244c	-0.05716352
127	0xbe09d465	-0.13459928
128	0xbc8d0bc2	-0.01721752
129	0x3c953aa5	0.01821644
130	0xbd3b1653	-0.045675587
131	0x3d27a4b3	0.040928554
132	0x3e50a2f5	0.20374663
133	0x3d376d0c	0.04478173
134	0xbd9bffa8	-0.07617122
135	0xbc98d233	-0.018654918
136	0xbcaf02b1	-0.021363588
137	0x3d9cfe5d	0.076657034
138	0x3c550150	0.013000801
139	0xbd6c5e4f	-0.057707127
140	0x3de1cbb4	0.110251814
141	0xbc027833	-0.007963228
142	0x3c9348b0	0.017978996
143	0xbaff47e9	-0.0019476387
144	0xbdd0a5c0	-0.10187864
145	0x3d5f85c4	0.05457093
146	0x3e61232d	0.21986075
147	0xbdfa7b1d	-0.12230513
148	0xbd6803a8	-0.056644112
149	0x39f062dc	0.00045850023
150	0xbce008a6	-0.027347874
151	0x3e3d45e1	0.18483688
152	0xbdbb50d2	-0.091462746
153	0xbe99644f	-0.29959342
154	0xbe384993	-0.17996816
155	0xbd74ae18	-0.05973634
156	0xbd956aa9	-0.072957344
157	0xbd506c48	-0.050884515
158	0x3db75056	0.0895087
159	0x3b4602e3	0.0030214123
160	0x3da1d140	0.079012394
161	0x3ca32950	0.01991716
162	0xbd55bcd2	-0.052182026
163	0xbbd548e0	-0.0065089315
164	0xbda6800d	-0.081298925
165	0x3e4f6801	0.20254518
166	0xbcd1658d	-0.025561118
167	0xbcb9a7ab	-0.022662958
168	0xbe5e5812	-0.21713284
169	0xbdb50919	-0.08839626
170	0xbc3c6b14	-0.011500139
171	0xbe1b766a	-0.1518189
172	0x3d9c81bb	0.076419316
173	0xbe202e51	-0.15642668
174	0x3d97d3f7	0.07413476
175	0xbe1c57e1	-0.15267898
176	0x3d22d026	0.039749287
177	0x3d08b75c	0.03337799
178	0xbbdbc731	-0.006707095
179	0xbdfb2fc6	-0.122649714
180	0xbe0ce479	-0.1375903
181	0xbdfa5f96	-0.12225263
182	0xbd4cd67b	-0.050009232
183	0x3e26738b	0.16255014
184	0x3e060c61	0.1309066
185	0x3d2080bb	0.039185267
186	0xbca3d2e0	-0.019998014
187	0xbd9f3220	-0.077732325
188	0xbc041dfa	-0.008063788
189	0xbce16343	-0.027513152
190	0x3dc111e1	0.09427238
191	0xbd8895d7	-0.06669205
192	0x3de7479b	0.112929545
193	0x3d3e1543	0.046406996
194	0xbe620db3	-0.22075538
195	0x3af05458	0.0018335683
196	0xbdc9efe9	-0.09860212
197	0x3d069024	0.032852307
198	0x3cadcac2	0.021214847
199	0xbcbbabec	-0.022909127
200	0x3da0ae6f	0.078457706
201	0xbd1c3f37	-0.038146224
202	0xbd148970	-0.036263883
203	0xba235acf	-0.0006231488
204	0x3d294244	0.04132296
205	0x3dd16d97	0.10225981
206	0xbdb4a620	-0.08820748
207	0x3b965c68	0.0045886524
208	0x3dd89f1b	0.10577222
209	0xbd5542b8	-0.05206558
210	0x3e4b1d46	0.19835386
211	0x3d9b6d85	0.075892486
212	0x39e83000	0.0004428625
213	0x3d6dd058	0.05806002
214	0xbdf65a2f	-0.1202892
215	0xbd663c2f	-0.05620974
216	0x3de347a4	0.11097649
217	0xbe00786a	-0.12545934
218	0x3de6aed3	0.11263814
219	0x3d8f2a1c	0.069904536
220	0xbe430dfa	-0.190483
221	0x3e874ceb	0.2642587
222	0x3c7b6eca	0.015346238
223	0xba77bb3f	-0.0009450204
224	0xbd9d723c	-0.07687804
225	0x3ddd2586	0.10798173
226	0xbca6575d	-0.02030533
227	0x3da8401e	0.082153544
228	0xbc624362	-0.013810011
229	0x3db7897d	0.08961771
230	0x3e0520b2	0.13000754
231	0xbdea89a1	-0.11452032
232	0xbe485349	-0.19563021
233	0xbcffcddf	-0.031226097
234	0x3d99ca29	0.07509262
235	0x3c43abb7	0.0119427955
236	0x3cc6ed97	0.024283214
237	0xbe640501	-0.22267534
238	0xbdb500aa	-0.08838017
239	0xbccf3253	-0.025292551
240	0xbe409573	-0.1880701
241	0xbd619458	-0.055073112
242	0x3d49e183	0.04928733
243	0xbdf653cc	-0.12027702
244	0x3d3ca683	0.046057235
245	0x3d492265	0.049105067
246	0x3d6f25ef	0.058385786
247	0xbe6bde19	-0.23033942
248	0xbdede0b0	-0.11615121
249	0x3d826e89	0.06368739
250	0xbdfd2d4c	-0.12362155
251	0xbce9d3f0	-0.028543442
252	0xbc48bf0f	-0.012252583
253	0xbd744d3a	-0.05964396
254	0x3c087b63	0.008330199
255	0xbde70927	-0.112810425

fc2.bias f4 [4]
0	0xbd2762a9	-0.040865574
1	0xbb7643b1	-0.0037576968
2	0x3de8a6cf	0.11359941
3	0x3d464f96	0.048415743
