double_pendulum_pbnn_model.pth (torch, 4584 bytes, 4 tensors)

fc1.weight f4 [64, 4]
000000 a8 fc da 3e 26 00 bd be 54 c3 4a be 17 89 3e 3d
       0.42770886 -0.36914176 -0.19801074 0.046517458
000010 9e 19 a2 be 20 8b 8e 3d 80 8f 9d bb 30 53 8f be
       -0.3166017 0.0696013 -0.0048083663 -0.27993155
000020 df b4 50 3c 72 9f a8 3e b5 82 5b be 6e eb 24 be
       0.0127384355 0.32934147 -0.2143658 -0.16105434
000030 58 2d aa bd 5a ce 03 3f 96 10 31 3e 48 15 af bd
       -0.0830943 0.5148674 0.17291483 -0.08548981
000040 28 7d 6a be 5c 0f 6d 3e 9e ad e4 be 8c 22 63 be
       -0.22899306 0.2315039 -0.4466371 -0.22181147
000050 38 f9 d0 be e0 28 b6 3c ac 04 d1 be 30 9d 0d 3d
       -0.4081514 0.022236288 -0.40823877 0.034573734
000060 c9 2f 64 3e 08 0d d2 bc 4f 46 ee 3e ff 05 bb bd
       0.22283854 -0.02564098 0.46538016 -0.09132003
000070 3a e0 49 3d 87 68 8a bc c3 ec ee 3d 4c d9 07 be
       0.049286105 -0.016895546 0.116662525 -0.13266486
000080 fe a7 89 be 9a 2b f5 3e 64 7e 57 be a4 3b a6 be
       -0.2688598 0.47884828 -0.21044308 -0.32467377
000090 ba f0 05 be b0 b6 c3 be da 79 bc be 9b 60 90 be
       -0.13080111 -0.38225317 -0.36811715 -0.28198704
0000a0 5a 19 f0 3e 44 fe 09 3e c6 cb 95 3e 6e c2 ae 3e
       0.46894342 0.13475901 0.2925703 0.34132713
0000b0 80 1a 51 3e 7b 1e cf bd ea a2 b6 3d 14 b0 89 be
       0.20420265 -0.101132356 0.08917792 -0.2689215
0000c0 23 04 20 be 19 e7 99 3d c0 a4 8a bd 6d 03 53 3e
       -0.15626578 0.075147815 -0.06769705 0.20606776
0000d0 0f 8a 54 3e cf b4 c0 bd d2 d5 09 3e 05 62 f3 be
       0.2075579 -0.094094865 0.13460472 -0.4753572
0000e0 8a 9c f9 be ec 0e 32 3e 52 23 cb 3e 28 fa fc 3d
       -0.48752242 0.17388505 0.39675385 0.12352401
0000f0 c0 0e 31 3d 49 08 8f 3e 33 67 79 3e 92 08 c6 bd
       0.043226957 0.2793601 0.24355774 -0.096696034
000100 9b ae 55 3f d7 0d 44 3e f7 0e 4a 3e f1 ff b0 3e
       0.8346955 0.19145904 0.19732271 0.34570268
000110 ca 31 b6 bd a4 da e0 3c b5 7f d0 3e 11 53 ee 3d
       -0.08896215 0.027448006 0.40722433 0.116369374
000120 bc 58 0e 3f 20 90 23 3f db 18 48 be 3d a9 13 bf
       0.5560415 0.6389179 -0.19540732 -0.5768011
000130 d0 bc 88 3e 0d 19 ca bd 85 72 83 3c 18 33 3a 3e
       0.26706553 -0.09868059 0.016045818 0.18183553
000140 b8 29 06 be 30 a7 f3 3e 04 2a 18 3e 98 62 cb bd
       -0.13101852 0.4758849 0.14859778 -0.09930915
000150 35 d3 2d 3d f0 10 8e 3e dc 9b 96 3e 99 8b 72 3e
       0.04243775 0.27747297 0.29415786 0.23686065
000160 a2 ca ff 3d d6 5c ae be 17 78 b3 bb e3 f8 a0 3d
       0.12489821 -0.34055203 -0.0054769623 0.078599714
000170 10 3b c1 be 14 4e c0 be a8 97 34 3e d0 ef b1 3e
       -0.37740374 -0.3755957 0.17635977 0.34753275
000180 f2 20 80 be 00 78 93 ba 30 bd 23 3e 30 26 1e bd
       -0.25025135 -0.0011250973 0.15990138 -0.038610637
000190 2c 6c 68 be c6 66 11 be 0b 5c fe be 56 12 71 3c
       -0.22697514 -0.14199361 -0.49679598 0.014713844
0001a0 be 97 26 3e bd 4c cb 3e be 0d 7e be 7c cd ad 3d
       0.16268823 0.39706984 -0.2480993 0.08486459
0001b0 b0 b3 24 3d 7e 27 97 3e f0 6f c1 3d ac 53 b3 be
       0.040210426 0.29522318 0.094451785 -0.35024774
0001c0 03 00 de be 0f 49 11 3f ed 12 e9 bc d5 d6 03 3f
       -0.43359384 0.56752104 -0.028451407 0.5149968
0001d0 28 55 a4 3d 4b ff 81 3c 71 6f 88 3e 6d 8d c2 bd
       0.08024055 0.015868803 0.26647523 -0.09499631
0001e0 f4 f4 44 be d4 a8 f6 be aa 62 c8 be fe d5 d9 3e
       -0.19234067 -0.4817568 -0.39137775 0.42546076
0001f0 cc 26 c5 be 0f 7d b0 bd 90 f6 1b 3f 12 2c 1c bf
       -0.38506162 -0.08617603 0.609231 -0.61004746
000200 0a 35 ce 3e 06 6b a9 be a0 5e 54 3d 16 ed fd be
       0.4027484 -0.33089465 0.051848054 -0.49594945
000210 17 a1 0f bf a4 17 6b 3e da 9d 41 3e ed 7a 75 be
       -0.5610518 0.22958237 0.18907872 -0.23972674
000220 35 4a 61 3e ef bd 3f be 9f 71 bc bd 95 97 84 be
       0.22000964 -0.18724798 -0.09201359 -0.25896898
000230 d8 86 7c 3e 8a 0b c6 3e 04 94 b1 3e a0 aa 61 3d
       0.24660814 0.3868068 0.3468324 0.05509436
000240 89 11 b4 3d 3e 34 5d be 88 a3 6d 3e 74 0a c4 3e
       0.08792407 -0.2160196 0.23206913 0.38289225
000250 30 69 ed 3e 30 cf 45 3e f0 c2 b3 3e 14 d2 e0 3e
       0.46369314 0.19317317 0.35109663 0.43910277
000260 2b ef 62 be af 39 2d 3f a4 a2 1c bc d3 6d 88 be
       -0.22161548 0.67666143 -0.009560261 -0.2664629
000270 78 cf b1 3d 40 e8 dd bd 24 41 f5 be 00 47 29 bb
       0.0868215 -0.10835314 -0.4790126 -0.0025829673
000280 9e 4f a7 3e dc 99 d9 3c 82 1b 40 be 2b 00 64 be
       0.3267793 0.026562624 -0.18760493 -0.22265689
000290 8b af 93 be 0a f1 84 be db 29 86 3e 2f 99 67 be
       -0.28844866 -0.25965148 0.26203808 -0.22617029
0002a0 4c bb 17 3e d6 a8 f1 bd 25 f2 96 3e 09 83 88 be
       0.14817542 -0.11799781 0.29481617 -0.26662472
0002b0 7c fb 0a 3e 28 52 d2 3e f0 92 ec bd 00 ae e2 ba
       0.13572496 0.41078305 -0.115514636 -0.0017294288
0002c0 a5 21 42 3e 2f 13 13 3f ce ca 0b 3f 19 95 d3 3e
       0.18958147 0.57451147 0.5460633 0.4132469
0002d0 80 0c 47 3e 38 8f cf 3d a8 66 d9 bd b4 41 62 3e
       0.19438362 0.10134739 -0.10615283 0.22095376
0002e0 a1 3c 15 bf 7b 5a 05 be 25 8c 13 be 55 09 7c be
       -0.5829564 -0.13022797 -0.1440893 -0.24612935
0002f0 04 b1 e8 3d 7b 08 c7 bb bd 6f 13 bf d7 e2 88 be
       0.11361888 -0.006074009 -0.57592374 -0.26735565
000300 b9 bf f2 be 4a 7f ad 3e 5f 48 02 bf ea c0 05 bf
       -0.47411898 0.33886176 -0.5089168 -0.5224749
000310 00 69 63 be 68 5c cb 3e 53 58 b1 be 6a 1e c9 be
       -0.22208023 0.39718938 -0.346377 -0.39281017
000320 e9 cf f6 be e4 c9 14 3d 46 36 1a 3e e0 dd 7f be
       -0.48205498 0.03632535 0.15059766 -0.24986982
000330 61 7b 0d bf 53 dc 09 bf 71 35 5f 3e b4 f7 50 3e
       -0.55266386 -0.53851813 0.2179773 0.20406991
000340 b1 2b 80 3e 51 36 69 3d 99 4b c9 be 7b 0b ca 3e
       0.25033334 0.056936566 -0.3931549 0.39461884
000350 c0 1c 1c bd de 5a a5 be 54 4b 2a 3e 24 fc b9 3e
       -0.038113356 -0.3229589 0.16630298 0.3632518
000360 8f 55 5a 3e 8f 16 99 3e 33 16 e6 3e 91 9d 65 3d
       0.213217 0.29900023 0.44938812 0.05605847
000370 01 e5 01 3d 79 69 55 3e f5 00 3a 3e cb 1e 28 3e
       0.031712536 0.20841016 0.18164428 0.16417997
000380 e0 0b 95 be ef d0 ab be de 59 d1 3d 78 98 99 3e
       -0.29110622 -0.3355784 0.10222219 0.29999137
000390 7d 6f 06 3f d2 93 50 be 55 99 fe bd 3d ce 04 bf
       0.5251387 -0.20368889 -0.124315895 -0.51877195
0003a0 59 88 37 bb 2a 5f 62 3d f6 bd 43 3e 75 10 5d bc
       -0.0028004854 0.055266537 0.19115433 -0.013492693
0003b0 b8 80 4f 3e 09 26 d2 be f6 4e c9 be f9 67 7a be
       0.20263946 -0.41044644 -0.39318055 -0.24453725
0003c0 b4 5a b0 3e 2f b1 8c 3e 50 82 7a 3d c4 f3 ed bc
       0.344442 0.2747893 0.061159432 -0.0290469
0003d0 9e 5d b9 be 59 d7 ce 3e 04 12 c7 3d ae d5 ae be
       -0.36204237 0.40398672 0.09720233 -0.341474
0003e0 37 82 ae be e8 53 d7 bc a5 fb 49 3e e5 55 85 be
       -0.3408372 -0.026285127 0.19724901 -0.26042095
0003f0 cc 38 a1 3e ea 00 bc be b6 29 27 bf 0f 3d 42 be
       0.31488645 -0.36719447 -0.6529802 -0.18968605

fc1.bias f4 [64]
000000 10 95 4e 3e a0 86 c7 be f1 c9 29 3e 5f 31 95 3e
       0.2017405 -0.38969898 0.16580941 0.2913923
000010 14 f7 eb be 26 5b a1 be be 13 8c 3e 8f 09 7d 3d
       -0.46086943 -0.31514853 0.27358812 0.061776694
000020 ae 7c dd be 1a d8 4c 3d c8 be 7e be 9d d4 a0 bc
       -0.43259186 0.050010778 -0.24877465 -0.019632632
000030 68 51 72 3c 86 cf 34 3e dc 90 fb be 65 95 b3 3e
       0.014789917 0.17657289 -0.49133956 0.35074916
000040 33 0c 07 be 70 9c 5a 3e 00 f6 9f be 4d 94 23 3e
       -0.13188247 0.21348739 -0.3124237 0.15974541
000050 34 32 56 be 59 4d 9d 3e 28 51 01 3e 90 97 ec be
       -0.20917588 0.30723074 0.12628615 -0.46209383
000060 dc 32 7c be 32 be 20 3e d2 d0 8b 3e a8 19 b5 be
       -0.24628776 0.15697554 0.27307755 -0.35371137
000070 35 8c f0 3e 12 45 13 3e 2a cc f5 be 8a 2e a2 be
       0.4698197 0.14381817 -0.48007327 -0.3167613
000080 2c aa b0 be 8e 9d 6b 3e 31 8e f2 3d c6 ac b3 be
       -0.3450483 0.23009321 0.11843527 -0.35092753
000090 5d 72 71 3e 9c 08 c1 be cc db bf 3e 52 05 9a be
       0.23578782 -0.3770188 0.3747238 -0.30082184
0000a0 1a 44 31 3e a4 43 3b 3e 0d 36 2d 3e b4 9c e5 be
       0.17311135 0.18287522 0.1691515 -0.44846117
0000b0 49 b4 96 bd bc bb 73 be f7 05 ba 3d 6b 54 a3 be
       -0.073586054 -0.23802084 0.09083169 -0.31900343
0000c0 dd e3 be 3e 75 54 a8 be 2e d5 2c 3e 9b 44 83 3e
       0.3728322 -0.32876936 0.16878197 0.2563828
0000d0 9c 3d 52 3e 78 7e d7 be db 75 a5 3e cd d9 c0 bd
       0.20531315 -0.42088675 0.3231648 -0.09416542
0000e0 46 b2 26 3e 01 19 90 3e e0 eb d8 3d e2 40 c8 be
       0.16278943 0.28144076 0.105918646 -0.39112002
0000f0 77 a1 83 3e a3 80 a5 3e c1 4b 18 3e 49 a2 bd 3e
       0.25709125 0.32324705 0.14872648 0.37037876

fc2.weight f4 [4, 64]
000000 bd 59 a5 3d 2c 06 bd 3d 6f 2e bd bd 3a e0 02 3d
       0.08073757 0.09229693 -0.09237372 0.03195212
000010 d0 7a 45 3c f8 e8 d0 3d 58 ff 39 3c fc 73 d6 bc
       0.012053207 0.10200685 0.011352383 -0.026178353
000020 14 65 2c bd 86 02 56 bd 70 5b aa 3c fd fc 71 3c
       -0.042088583 -0.0522485 0.020795554 0.01476979
000030 9f 09 98 bc a1 7d 51 3e 00 25 b4 bd 45 7d 50 bd
       -0.018559275 0.2045808 -0.0879612 -0.050900716
000040 b8 53 20 3e e0 c8 9c bc 21 c2 2e 3e 25 c1 0f 3e
       0.15656936 -0.019138753 0.17066242 0.14038523
000050 78 15 a0 bc 03 d1 7b 3d 1e f6 b1 3d 1e 4e f3 3d
       -0.019541487 0.061478626 0.08689521 0.11880134
000060 00 60 8d 3d c0 c0 27 be ca d2 22 bd bc 96 27 3d
       0.06903076 -0.16382122 -0.039751805 0.040915236
000070 c6 9e 82 bd c9 4e 33 3d 8e 25 fd bd 4c 11 ec bd
       -0.0637794 0.043776307 -0.123606786 -0.115267366
000080 5c ce 39 3d 16 9b 35 be 10 62 6a 3d f0 19 59 bd
       0.045362815 -0.17734942 0.057222426 -0.05300325
000090 5f 0c 10 bc 66 dc b1 3d 61 7b 7b 3d 48 b3 2e bd
       -0.008792012 0.08684616 0.06139696 -0.042651445
0000a0 1b 3c 7d 3d 9f 36 a8 bd 3b 20 51 3e 90 22 7e bd
       0.0618249 -0.08213543 0.20422451 -0.06204468
0000b0 03 db 12 3d 40 b4 52 3b d8 0a 62 be 81 cb 34 3c
       0.035853397 0.0032150894 -0.22074449 0.011034847
0000c0 b0 25 d4 bd 94 da 12 3c f5 83 b0 bd 89 3a 06 be
       -0.10358751 0.008963246 -0.08618919 -0.13108267
0000d0 2e eb 32 3e f0 4a 87 3c 87 88 90 bc 99 0e a6 3a
       0.17472526 0.016515225 -0.017643226 0.0012669145
0000e0 00 aa a2 be 56 00 ac 3d f4 16 a5 3c 35 13 b2 bd
       -0.31770325 0.083985016 0.020152546 -0.0869507
0000f0 1d 68 f7 3d fa 7c fa bd 4c 9d 2f be 9b 34 76 3d
       0.12080405 -0.12230869 -0.17149848 0.060108762
000100 cd 36 1d be 8e a8 e7 3d 6e a9 47 3e 63 a9 3e 3e
       -0.15352936 0.11311446 0.19498226 0.18619303
000110 a0 bc 6d 3d b4 21 cb 3d 41 49 f1 ba 43 eb 9b 3a
       0.058041215 0.09918538 -0.0018408672 0.0011895675
000120 80 21 bf 3a 2a 27 07 be c4 7b 19 3d 08 19 09 bc
       0.0014582127 -0.13198534 0.037471548 -0.008367784
000130 59 c5 37 3c d9 8a 05 3e 16 df e5 bd 03 10 b6 3d
       0.011216485 0.13041247 -0.11224191 0.08889773
000140 0b 2d 25 3d 69 9f 13 bd b7 c2 02 3e 1d a7 d4 bc
       0.04032616 -0.036040697 0.1276959 -0.025958592
000150 82 bc 9d bd 86 e6 f7 3c ef 83 62 be 60 00 0b bd
       -0.07701971 0.03026129 -0.22120641 -0.033935905
000160 40 b6 99 bc fe 4b 57 bc 24 27 56 bb 00 fa 81 b9
       -0.018763661 -0.013140677 -0.0032677138 -0.00024791062
000170 8c 14 29 3e 58 0f b6 3c 72 3f e8 bd 48 09 ef bc
       0.16511744 0.022224113 -0.11340226 -0.02917923
000180 1a e2 92 bd 7e 37 00 bd 3b ac f5 bd 94 9c 74 bd
       -0.07172032 -0.03130292 -0.11995741 -0.059719637
000190 95 0f 54 bd a4 95 41 3d d8 07 48 3e 58 cb ed bc
       -0.051772673 0.04726185 0.19534242 -0.029027626
0001a0 81 9c 0d bd 7f f1 62 be cb cb 3f be d8 1e e2 bc
       -0.034573082 -0.22162436 -0.18730085 -0.027602598
0001b0 0b 3c b1 3d 00 68 87 ba 00 71 67 bd 2b 11 e2 3c
       0.086540304 -0.0010330677 -0.05650425 0.027596077
0001c0 46 14 06 3d 9f 1e 02 3d dd c0 92 3b d9 ea 33 be
       0.032734178 0.031767484 0.0044785575 -0.17570056
0001d0 2f 93 39 3d 70 c6 5c 3d 31 1b 09 3d a4 35 8b bb
       0.04530638 0.053900182 0.033473197 -0.004248338
0001e0 df ca 73 be 89 6a 4a bd dd fe 5e bd a9 5b c8 3c
       -0.23807858 -0.049418006 -0.054442275 0.02445777
0001f0 01 0e b8 3d 91 47 42 3d 28 ef 10 bd d6 f9 f8 bd
       0.08987046 0.047431532 -0.035384327 -0.121570274
000200 98 f7 80 bd 38 fa db bd 7f 72 4c bd f5 19 83 3d
       -0.06297225 -0.10741085 -0.04991388 0.06401435
000210 b0 ef a0 bc d0 74 cd 3c d2 b5 5d 3e a9 b0 c8 bc
       -0.019645542 0.025080115 0.2165139 -0.0244983
000220 02 da e2 bd 4b 43 50 be 04 07 f2 bd 14 f2 7c 3a
       -0.11076738 -0.2033817 -0.118177444 0.00096491096
000230 c9 32 98 b8 7c 54 5c 3e fa ea af 3d e7 2d 56 3d
       -7.257384e-05 0.21516603 0.0858974 0.05228987
000240 1e 0c d6 3d 38 a8 01 3e 65 fe e2 bc dc 6e 95 bc
       0.1045153 0.12661827 -0.027709195 -0.018241338
000250 2a ff fd bd 5b 51 10 3d fe 95 99 bc 92 41 90 3d
       -0.12402184 0.035233837 -0.01874828 0.070437565
000260 40 dd 93 3d af d7 43 be ce 53 1f be da 2b f7 3d
       0.072199345 -0.19125246 -0.15559313 0.12068911
000270 ea b6 a1 bd 41 d4 2e 3e 54 fc b9 bd 50 77 ea 3d
       -0.07896216 0.17073156 -0.09081331 0.11448538
000280 8a 55 ac 3d f9 2a a1 3d 19 cb 0c be ec 07 04 3d
       0.08414753 0.078695245 -0.1374935 0.032234117
000290 49 98 0e 3e 5e bd 8a bd 80 9b da bd 46 32 c9 3d
       0.1392528 -0.067744 -0.106741905 0.09824042
0002a0 f9 cb 5d bd d1 96 e2 3d 8d c2 63 3e f0 ff 5c 3d
       -0.0541496 0.11063922 0.22242184 0.05395502
0002b0 92 f8 0c 3e 9c cd b9 3d 02 8c 16 be 47 31 d5 bd
       0.13766697 0.0907242 -0.14701846 -0.104097895
0002c0 4f 90 73 bd a7 7b a7 bd 1f 60 19 bd c4 15 d0 3c
       -0.059463795 -0.08177882 -0.037445184 0.025401004
0002d0 fd dd 3a be 1e e1 9a bd 0f 79 15 3e 0b 4b c7 3a
       -0.18248744 -0.07562469 0.14596961 0.001520486
0002e0 b0 e5 31 3d 77 13 eb bd 21 f2 71 3a c0 65 d9 bc
       0.043431938 -0.11478322 0.00092295004 -0.026537776
0002f0 c7 9a 6e bd b5 34 8c bc ba eb 04 3e 20 db 30 be
       -0.058253076 -0.017114976 0.12980548 -0.1727109
000300 a5 91 ad 3d 1c 32 c8 3d a8 6a 1a bc f8 4c 1b bd
       0.08475045 0.097751826 -0.009424843 -0.0379152
000310 7c e8 89 bd 4e 4a ec 3d 10 52 01 3d 33 bf f5 bc
       -0.06733796 0.1153761 0.0315724 -0.029998397
000320 60 ca 57 bd ad 8f 06 be 82 be e9 3d 0f c4 86 bc
       -0.052683234 -0.13140745 0.114132896 -0.01645091
000330 d9 78 b6 3c 5e 74 99 be 48 f0 cf bd c2 2f 6e bd
       0.022274422 -0.29971594 -0.10153252 -0.058151014
000340 24 59 b7 3d a3 0d e0 3c e2 86 1c be d2 44 61 3d
       0.08952549 0.027350252 -0.15285829 0.054997273
000350 90 cc 8e 3d 24 1f a4 3d 59 48 f2 3d 16 95 93 3d
       0.06972611 0.08013752 0.118302055 0.0720617
000360 8a 09 9d 3d b0 61 0e 3c bc 28 71 3d b0 14 fe 3c
       0.07667835 0.008690283 0.058876738 0.031015724
000370 14 04 27 3e 62 77 42 bd 1a 8d e8 bd 39 e0 3f be
       0.1631015 -0.047477134 -0.11355038 -0.18737878
000380 00 79 02 3b 2b 31 26 bd 03 3a 3c be 42 b0 eb bd
       0.0019908547 -0.040574234 -0.18381505 -0.11508228
000390 e6 15 f6 3d c8 17 27 3d 44 97 fd bc c2 93 ba bd
       0.120158955 0.040794164 -0.030955918 -0.09110214
0003a0 c3 8f 01 be aa 72 92 bd a7 23 0c be 70 e8 ba bd
       -0.12652497 -0.07150777 -0.13685475 -0.09126365
0003b0 75 80 b5 3d 68 d9 6e bd 6e f1 fe bd 63 ef 11 bd
       0.08862392 -0.058312804 -0.12448393 -0.035628688
0003c0 2b 63 ec bd 48 fc ab bd 83 05 05 bd 64 cd 23 3d
       -0.11542352 -0.08397728 -0.03247596 0.039990798
0003d0 02 6b 92 3e 8c 08 30 3d 06 c8 4a bd 10 2c a5 bb
       0.28597265 0.0429769 -0.049507163 -0.005040653
0003e0 96 5b 92 3e a0 a3 11 be f0 ab 2c bd 2c f7 69 3c
       0.285855 -0.14222574 -0.04215616 0.014280122
0003f0 3b 0c 24 3c 5f c0 db bd 59 04 1b be 92 35 de bd
       0.010012682 -0.10730051 -0.15138377 -0.108500615

fc2.bias f4 [4]
000000 03 61 a8 3d a0 54 c5 bc 1d f6 bf 3c 42 62 cb 3d
       0.082216285 -0.024088204 0.023432786 0.099308506
